…
d from the model checkpoint at distilbert-base-uncased and are newly initialized: ['classifier.bias', 'classifier.weight', 'pre_classifier.bias', 'pre_classifier.weight']\nYou should probably TRAIN this model on a down-stream task to be able to use it for predictions and inference.\n","output_type":"stream"},{"execution_count":27,"output_type":"execute_result","data":{"text/plain":"PeftModelForSequenceClassification(\n  (base_model): LoraModel(\n    (model): DistilBertForSequenceClassification(\n      (distilbert): DistilBertModel(\n        (embeddings): Embeddings(\n          (word_embeddings): Embedding(30522, 768, padding_idx=0)\n          (position_embeddings): Embedding(512, 768)\n          (LayerNorm): LayerNorm((768,), eps=1e-12, elementwise_affine=True)\n          (dropout): Dropout(p=0.1, inplace=False)\n        )\n        (transformer): Transformer(\n          (layer): ModuleList(\n            (0-5): 6 x TransformerBlock(\n              (attention): DistilBertSdpaAttention(\n                (dropout): Dropout(p=0.1, inplace=False)\n                (q_lin): lora.Linear(\n                  (base_layer): Linear(in_features=768, out_features=768, bias=True)\n                  (lora_dropout): ModuleDict(\n                    (default): Dropout(p=0.1, inplace=False)\n                  )\n                  (lora_A): ModuleDict(\n                    (default): Linear(in_features=768, out_features=8, bias=False)\n                  )\n                  (lora_B): ModuleDict(\n                    (default): Linear(in_features=8, out_features=768, bias=False)\n                  )\n                  (lora_embedding_A): ParameterDict()\n                  (lora_embedding_B): ParameterDict()\n                  (lora_magnitude_vector): ModuleDict()\n                )\n                (k_lin): Linear(in_features=768, out_features=768, bias=True)\n                (v_lin): lora.Linear(\n                  (base_layer): Linear(in_features=768, out_features=768, bias=True)\n                  (lora_dropout): ModuleDict(\n                    (default): Dropout(p=0.1, inplace=False)\n                  )\n                  (lora_A): ModuleDict(\n                    (default): Linear(in_features=768, out_features=8, bias=False)\n                  )\n                  (lora_B): ModuleDict(\n                    (default): Linear(in_features=8, out_features=768, bias=False)\n                  )\n                  (lora_embedding_A): ParameterDict()\n                  (lora_embedding_B): ParameterDict()\n                  (lora_magnitude_vector): ModuleDict()\n                )\n                (out_lin): Linear(in_features=768, out_features=768, bias=True)\n              )\n              (sa_layer_norm): LayerNorm((768,), eps=1e-12, elementwise_affine=True)\n              (ffn): FFN(\n                (dropout): Dropout(p=0.1, inplace=False)\n                (lin1): Linear(in_features=768, out_features=3072, bias=True)\n                (lin2): Linear(in_features=3072, out_features=768, bias=True)\n                (activation): GELUActivation()\n              )\n              (output_layer_norm): LayerNorm((768,), eps=1e-12, elementwise_affine=True)\n            )\n          )\n        )\n      )\n      (pre_classifier): ModulesToSaveWrapper(\n        (original_module): Linear(in_features=768, out_features=768, bias=True)\n        (modules_to_save): ModuleDict(\n          (default): Linear(in_features=768, out_features=768, bias=True)\n        )\n      )\n      (classifier): ModulesToSaveWrapper(\n        (original_module): Linear(in_features=768, out_features=37, bias=True)\n        (modules_to_save): ModuleDict(\n          (default): Linear(in_features=768, out_features=37, bias=True)\n        )\n      )\n      (dropout): Dropout(p=0.2, inplace=False)\n    )\n  )\n)"},"metadata":{}}],"execution_count":27},{"cell_type":"code","source":"print(\"Model device:\", next(model.parameters()).device)  # Should output: `cuda:0`\nprint(\"GPU memory allocated:\", torch.cuda.memory_allocated(0) / 1024**2, \"MB\")","metadata":{"trusted":true,"exec
…
